model_cnn.pth (torch, 435608 bytes, 8 tensors)

conv1.weight f4 [6, 3, 5, 5]
-0.029470956 0.08760534 -0.04504174 0.062807135 0.023368062 0.11591379 0.2148875 0.12537971
0.18973549 -0.100660436 0.16286063 0.193412 0.014207345 0.12403399 0.07507466 -0.12207702
-0.07972379 -0.12988622 -0.054461442 -0.095579304 0.014368414 -0.15103954 -0.08227344 -0.1561775
-0.07941231 -0.10075399 -0.044276323 -0.03072957 -0.15308335 0.06480412 0.09443313 -0.021777174
0.13355038 0.1562313 -0.0045527867 -0.054766282 0.041167125 0.013836972 0.050137803 0.10620227
-0.15886538 -0.1236302 -0.09835766 -0.068876155 -0.07356389 -0.05729038 -0.190891 -0.18788028
-0.16456963 0.14479156 0.013667181 -0.03142764 -0.105827115 0.001840209 0.050318133 0.15404081
0.05947377 0.23408405 0.042790633 -0.040117897 0.14944457 0.21768726 0.06425617 -0.0048933295
-0.07370102 -0.14805564 -0.21041246 -0.13425866 -0.10476269 -0.06776087 0.03768031 0.024339523
-0.054712858 0.056445315 0.21230948 0.085021585 0.074429825 0.050141312 -0.030329768 -0.042981945
0.037575833 -0.053000934 -0.09549226 0.053021256 0.04139251 -0.06211052 -0.13867751 -0.10113714
-0.086556084 -0.063348524 -0.04726702 -0.1763679 0.012745874 0.028445367 -0.040340584 0.08911759
-0.009793312 -0.11225242 -0.042573936 -0.07113923 0.07968407 -0.07353619 -0.080766246 -0.05676507
-0.09975707 -0.105429575 0.019837897 0.02118824 -0.016870014 0.04313598 -0.11162114 0.08794247
0.1452135 0.017283536 0.046367116 0.050175335 0.068121366 0.017854245 -0.026483214 0.008242094
-0.06353909 0.06464883 0.07007417 0.1293042 0.030449564 -0.038100954 -0.048206843 0.054296482
0.11017077 0.010272991 -0.029127372 0.058664776 0.14476267 0.22023717 0.12866804 -0.07262418
0.030358741 0.10789791 0.23600122 0.119451694 -0.07195216 0.12640041 0.18153563 0.092584245
-0.031552196 -0.048841476 0.013344649 0.12698963 0.069668666 0.07662881 -0.05849602 -0.018037846
-0.10726913 0.008350042 0.08412251 0.20432504 -0.06471713 0.074281484 0.16469835 0.21449657
0.23445153 0.0061798426 0.009609832 0.20636374 0.2306013 0.1829673 0.02180598 0.04154216
0.25154924 0.20017706 0.016919428 -0.09608146 0.07266891 0.0577113 0.15001486 0.0077175777
-0.052138127 -0.13976738 -0.0144056585 -0.018266628 0.0146784 -0.15363613 -0.25574332 -0.08777085
-0.03025393 0.010611334 -0.16120231 -0.25996485 -0.037718017 -0.114606634 -0.0049059843 -0.28752273
-0.20577618 -0.12543291 -0.036110178 0.064222276 -0.20371006 -0.09042941 0.020338451 0.039923437
0.1071358 0.06349497 -0.06113258 0.12451753 0.07471013 -0.03187743 -0.042908546 -0.050556798
0.039795663 0.023900812 0.004776095 -0.10837732 -0.17584614 0.02067457 0.1333711 0.116527125
-0.160458 -0.055867866 0.00044492714 0.076073274 0.12553945 -0.018098582 -0.06649101 0.033369854
-0.07196043 -0.08699924 -0.19274588 -0.031467248 -0.11300126 -0.12298347 -0.052164257 0.08299789
0.08415512 -0.06963638 0.08412258 -0.00067750254 0.17116205 0.11578147 -0.041722193 0.054652967
0.09084968 0.037464675 0.14366347 -0.03753334 0.061560478 0.17999476 -0.021878256 -0.012703658
0.15341637 -0.078414395 0.13967583 0.034358993 0.036815334 0.16280428 0.0453296 0.02616538
00000000: 136d f1bc 6e6a b33d b07d 38bd 07a1 803d
00000010: 616e bf3c 3664 ed3d 780b 5c3e 8a63 003e
00000020: 054a 423e 0f27 cebd f0c4 263e cc0d 463e
00000030: edc5 683c 8805 fe3d bec0 993d 8403 fabd
00000040: 3a46 a3bd e500 05be f612 5fbd 15bf c3bd
00000050: 7f69 6b3c 1caa 1abe fa7e a8bd ffec 1fbe
00000060: eca2 a2bd 1c58 cebd 175b 35bd 94bc fbbc
00000070: e2c1 1cbe 06b8 843d 2866 c13d 0b66 b2bc
00000080: 6ec1 083e 19fb 1f3e 8b2f 95bb 9c52 60bd
00000090: dc9e 283d 78b4 623c 4c5d 4d3d 9380 d93d
000000a0: 9bad 22be d531 fdbd be6f c9bd f10e 8dbd
000000b0: aaa8 96bd 51a9 6abd ee78 43be b063 40be
000000c0: f184 28be 3d44 143e 50ec 5f3c 45ba 00bd
000000d0: e3bb d8bd 2b33 f13a 631a 4e3d e0bc 1d3e
000000e0: c59a 733d bbb3 6f3e 3b45 2f3d aa52 24bd
000000f0: ff07 193e 69e9 5e3e bd98 833d 3958 a0bb
00000100: 8ff0 96bd e69b 17be 5d76 57be 1a7b 09be
00000110: d28d d6bd 36c6 8abd ab56 1a3d ae63 c73c
00000120: 971a 60bd 3433 673d a867 593e cc1f ae3d
00000130: aa6e 983d fa60 4d3d 2276 f8bc d60d 30bd
00000140: 1ee9 193d 8217 59bd 7291 c3bd d12c 593d
00000150: 318b 293d 9a67 7ebd 7a01 0ebe fd20 cfbd
00000160: 5144 b1bd dfbc 81bd 109b 41bd c999 34be
00000170: 12d4 503c 4206 e93c 2b3c 25bd 4883 b63d
00000180: 2174 20bc 99e4 e5bd 0262 2ebd 72b1 91bd
00000190: 6731 a33d 249a 96bd c668 a5bd 7d82 68bd
000001a0: 6f4d ccbd 76eb d7bd 1683 a23c f692 ad3c
000001b0: fc32 8abc 5aaf 303d a099 e4bd 2f1b b43d
000001c0: d9b2 143e 3496 8d3c 72eb 3d3d a784 4d3d
000001d0: 3783 8b3d 1143 923c 53f3 d8bc d909 073c
000001e0: c820 82bd 9b66 843d 0c83 8f3d 5268 043e
000001f0: 5d71 f93c bf0f 1cbd 8a74 45bd fd65 5e3d
00000200: 36a1 e13d 0c50 283c 879c eebc 7a4a 703d
00000210: aa3c 143e da85 613e 8ec1 033e fcbb 94bd
00000220: e5b2 f83c 94f9 dc3d 4eaa 713e 17a3 f43d
00000230: a75b 93bd 1c6f 013e 7ae4 393e cf9c bd3d
00000240: e03c 01bd 000e 48bd 84a3 5a3c 9209 023e
00000250: 72ae 8e3d 91ef 9c3d 8699 6fbd 1bc4 93bc
00000260: ebaf dbbd 9dce 083c 6c48 ac3d 953a 513e
00000270: 6a8a 84bd e420 983d afa6 283e fda4 5b3e
00000280: 1014 703e 4780 ca3b 8f72 1d3c 0451 533e
00000290: bf22 6c3e c85b 3b3e 74a2 b23c 1d28 2a3d
000002a0: 10cb 803e 37fb 4c3e 9d9a 8a3c 5bc6 c4bd
000002b0: 70d3 943d af62 6c3d 7f9d 193e bce3 fc3b
000002c0: ca8e 55bd 2e1f 0fbe b605 6cbc e5a3 95bc
000002d0: ac7d 703c ca52 1dbe caf0 82be 34c1 b3bd
000002e0: 17d7 f7bc 29db 2d3c 3812 25be 1d1a 85be
000002f0: 357e 1abd e2b6 eabd 61c2 a0bb 2e36 93be
00000300: feb6 52be 7c71 00be 44e8 13bd f886 833d
00000310: 5f99 50be 0e33 b9bd d39c a63c c286 233d
00000320: 046a db3d a709 823d 2866 7abd 0c03 ff3d
00000330: a001 993d e891 02bd dfc0 2fbd a514 4fbd
00000340: c700 233d a3cb c33c ca80 9c3b eef4 ddbd
00000350: 0311 34be b75d a93c 6f92 083e c6a5 ee3d
00000360: 1a4f 24be b4d5 64bd 1c45 e939 4ecc 9b3d
00000370: 6a8d 003e 7a43 94bc 702c 88bd d4ae 083d
00000380: fd5f 93bd a82c b2bd 2d5f 45be cde3 00bd
00000390: 346d e7bd c2de fbbd 30aa 55bd ccfa a93d
000003a0: 8559 ac3d 859d 8ebd 7648 ac3d 6d9a 31ba
000003b0: 1b45 2f3e d61e ed3d e4e4 2abd cadb 5f3d
000003c0: 660f ba3d 8f74 193d 841c 133e 8fbc 19bd
000003d0: d726 7c3d 8c50 383e 073a b3bc 0123 50bc
000003e0: 2e19 1d3e ba97 a0bd 2e07 0f3e 04bc 0c3d
000003f0: adcb 163d 2ab6 263e 88ab 393d c758 d63c

conv1.bias f4 [6]
-0.022470279 -0.108374774 0.01264933 -0.015705127 0.0351085 0.024897754
00000000: 9713 b8bc 98f3 ddbd 233f 4f3c 0aa8 80bc
00000010: eecd 0f3d 60f6 cb3c

conv2.weight f4 [16, 6, 5, 5]
0.123436294 0.019995824 -0.031416845 0.02018046 0.19756664 0.048990883 0.042486 -0.019661438
0.020756314 0.12262518 0.039850254 -0.03480643 -0.041621793 0.008802693 0.123797275 0.029524742
-0.03243708 -0.0696227 0.00045502046 0.012930638 -0.038800403 -0.07729125 -0.009110837 0.016396595
0.054336123 0.17880979 0.11936622 0.22710125 0.16728976 0.2180193 0.01835942 0.07082121
0.003705859 0.08480131 0.11306608 -0.10637227 -0.018711384 -0.12841356 0.0113232285 -0.05648049
-0.005861519 -0.052450046 -0.16153732 -0.07709945 -0.048492286 -0.06175371 0.07572147 0.01904774
-0.09480647 -0.13582325 -0.2720524 -0.31047904 -0.20623405 -0.24252588 -0.00046709582 -0.14400297
-0.20744175 -0.16817862 -0.28753904 0.021863565 0.018646093 0.28099912 0.17012124 0.09826671
0.039672855 0.20394222 0.24930842 0.27101186 0.059586894 0.07807587 0.034990683 0.02495405
0.17643343 -0.15034029 0.08351585 -0.0670794 -0.15891565 -0.07883923 -0.08390879 -0.038932163
-0.10036562 -0.045268312 -0.027649734 -0.08928408 -0.029679244 0.06517327 0.20276736 0.2055358
0.14530903 0.10833953 0.06819401 0.07232678 0.06607812 -0.021454455 0.07232727 0.0021344014
-0.031583175 -0.018516337 -0.10667655 -0.028029013 0.08340113 -0.0070306556 -0.024218598 0.00657866
0.04210442 -0.018022653 -0.004244222 0.03108667 0.062625214 -0.016712204 -0.054572724 -0.12242431
-0.17675278 -0.087402366 -0.09093477 -0.08594142 -0.12610222 -0.12879144 -0.09616597 0.019128202
0.056317747 0.16876301 -0.038364377 0.090842634 0.067436434 0.08215359 -0.011862206 0.03326814
0.05465898 0.05856984 0.21021192 0.20743364 0.16222756 0.19687004 0.12347885 0.01661743
0.022537023 0.015180992 0.028068349 0.041487038 -0.16005427 -0.24153353 -0.14327039 -0.14502706
-0.011333943 -0.13120735 -0.30392388 -0.3333533 -0.35935083 -0.13384487 0.034011688 0.04074293
0.23862372 0.14924385 -0.036496095 0.13142434 0.017164646 -0.23896731 0.0008225699 0.13825713
-0.13708597 0.13852641 0.16987436 0.044256303 -0.09411478 -0.2697328 -0.050204396 0.079795435
0.12850462 0.0699526 -0.087801926 -0.07047148 -0.05398344 0.046087533 0.07256586 -0.030276487
-0.028245883 0.07605248 0.047129855 0.009541491 -0.074389115 0.04853682 0.042579986 0.13260867
0.100378536 -0.13812725 0.03409751 0.016005445 -0.05597425 0.02016971 -0.023610637 -0.08549428
-0.029839605 0.03671803 0.050525606 -0.05192134 -0.07985044 -0.035135318 -0.004291427 -0.0023798442
-0.031731885 -0.08304559 0.05990488 0.03610685 0.019166863 -0.04238001 0.010612599 -0.021204332
0.07229299 0.08824669 -0.0012393079 -0.06230126 -0.1164598 -0.06862652 0.123852216 -0.09528151
-0.0026678627 -0.047269255 0.031636804 0.015794737 -0.15203463 -0.09461211 0.054628674 0.042647783
0.13355917 -0.051744673 0.014202756 0.12945955 0.1640811 0.045905963 0.005142682 -0.025789948
0.001037333 0.06234741 0.26335275 -0.040704623 -0.013502794 0.06352242 0.06835527 0.08133836
-0.07447261 -0.13420284 -0.01751671 -0.09209646 0.0022079893 -0.050529823 -0.040359076 -0.066943415
-0.09811849 -0.0077864327 -0.0051266956 0.08237499 0.13436508 -0.08510826 0.06414589 0.11086273
00000000: 2bcc fc3d 48ce a33c f3ae 00bd 7e51 a53c
00000010: e94e 4a3e aaaa 483d cd05 2e3d 0611 a1bc
00000020: 2509 aa3c e922 fb3d 053a 233d 3091 0ebd
00000030: 9d7b 2abd 2c39 103c 6d89 fd3d dfdd f13c
00000040: bedc 04bd 5996 8ebd d08f ee39 07db 533c
00000050: 2ced 1ebd e04a 9ebd 9f45 15bc 2752 863c
00000060: 8e8f 5e3d ea19 373e 4776 f43d 3b8d 683e
00000070: 024e 2b3e 7440 5f3e 7f66 963c b60a 913d
00000080: ffdd 723b 4fac ad3d 308f e73d b4d9 d9bd
00000090: 9e48 99bc d87e 03be 1085 393c 1658 67bd
000000a0: fc11 c0bb dcd5 56bd 0a6a 25be 51e6 9dbd
000000b0: d99f 46bd 75f1 7cbd dc13 9b3d 020a 9c3c
000000c0: e529 c2bd 4015 0bbe 744a 8bbe 1cf7 9ebe
000000d0: 052f 53be b458 78be 8ae4 f4b9 8475 13be
000000e0: 9c6b 54be 0437 2cbe 5138 93be 381b b33c
000000f0: b1bf 983c 1edf 8f3e 4334 2e3e 0f40 c93d
00000100: 0180 223d 3bd6 503e b54a 7f3e 11c2 8a3e
00000110: 6311 743d 3ee6 9f3d 6452 0f3d 706c cc3c
00000120: f7aa 343e cef2 19be 5c0a ab3d ed60 89bd
00000130: c9ba 22be 7676 a1bd 5fd8 abbd 5577 1fbd
00000140: 7d8c cdbd 446b 39bd b281 e2bc 92da b6bd
00000150: e321 f3bc 9079 853d 3fa2 4f3e fa77 523e
00000160: e4cb 143e 1ee1 dd3d 4da9 8b3d 1020 943d
00000170: f753 873d 41c1 afbc 5220 943d 50e1 0b3b
00000180: 5c5d 01bd 93af 97bc 3c79 dabd 1a9d e5bc
00000190: 36ce aa3d 6a61 e6bb 1566 c6bc cd91 d73b
000001a0: af75 2c3d 3ea4 93bc 1d13 8bbb 79a9 fe3c
000001b0: a641 803d 08e8 88bc a687 5fbd 99b9 fabd
000001c0: aefe 34be 0300 b3bd 023c babd 0e02 b0bd
000001d0: f120 01be e7e1 03be aaf2 c4bd bfb2 9c3c
000001e0: 70ad 663d 36d0 2c3e f723 1dbd b40b ba3d
000001f0: 1d1c 8a3d 2440 a83d b359 42bc 2c44 083d
00000200: 18e2 5f3d eee6 6f3d cb41 573e 7c69 543e
00000210: fb1e 263e 4d98 493e 7be2 fc3d 4721 883c
00000220: 909f b83c b2b9 783c 98ef e53c 50ee 293d
00000230: 44e5 23be 9154 77be 79b5 12be f981 14be
00000240: 01b2 39bc 385b 06be e99b 9bbe 49ad aabe
00000250: d5fc b7be a10e 09be d74f 0b3d 0fe2 263d
00000260: c759 743e 61d3 183e ee7c 15bd 1a94 063e
00000270: df9c 8c3c d9b3 74be bba1 573a 4793 0d3e
00000280: 4460 0cbe ded9 0d3e 8bf3 2d3e 1946 353d
00000290: 40bf c0bd 6b1a 8abe 20a3 4dbd ca6b a33d
000002a0: b796 033e 4f43 8f3d 7fd1 b3bd 5a53 90bd
000002b0: bd1d 5dbd 48c6 3c3d 699d 943d 6506 f8bc
000002c0: e963 e7bc 67c1 9b3d 3c0b 413d ea53 1c3c
000002d0: 5259 98bd 8bce 463d 5a68 2e3d 91ca 073e
000002e0: 4393 cd3d 3b71 0dbe d5a9 0b3d da1d 833c
000002f0: 4145 65bd f33a a53c 186b c1bc a017 afbd
00000300: 3072 f4bc a565 163d f0f3 4e3d 79ab 54bd
00000310: a188 a3bd 0dea 0fbd 199f 8cbb 29f7 1bbb
00000320: 4bf9 01bd ce13 aabd d25e 753d c7e4 133d
00000330: d303 9d3c a996 2dbd 77e0 2d3c b5b4 adbc
00000340: 590e 943d aeba b43d 4670 a2ba 9b2f 7fbd
00000350: 7a82 eebd 108c 8cbd 3ba6 fd3d f422 c3bd
00000360: 4fd7 2ebb 689d 41bd 9895 013d f763 813c
00000370: f7ae 1bbe fec3 c1bd 51c2 5f3d 71af 2e3d
00000380: bcc3 083e 39f2 53bd adb2 683c 0b91 043e
00000390: e004 283e e407 3c3d f283 a83b 7145 d3bc
000003a0: 1ff7 873a ff5f 7f3d 2cd6 863e e4b9 26bd
000003b0: d33a 5dbc 0b18 823d d9fd 8b3d ba94 a63d
000003c0: 1985 98bd 786c 09be 347f 8fbc 129d bcbd
000003d0: eab3 103b 5cf8 4ebd 8f4f 25bd a119 89bd
000003e0: 59f2 c8bd 5525 ffbb d7fd a7bb 38b4 a83d
000003f0: 0097 093e 3d4d aebd ec5e 833d 000c e33d

conv2.bias f4 [16]
-0.21823044 -0.17673601 -0.0399111 0.33363652 0.025360243 0.27048707 -0.09717831 -0.039482076
0.118011236 -0.012774977 0.40697137 -0.1922481 -0.11010633 0.22642243 0.04285321 0.30942464
00000000: cd77 5fbe 49fa 34be d279 23bd 68d2 aa3e
00000010: 49c0 cf3c 487d 8a3e 6c05 c7bd f5b7 21bd
00000020: e0af f13d 234e 51bc 8d5e d03e b0dc 44be
00000030: 6d7f e1bd 48db 673e d986 2f3d e86c 9e3e

fc1.weight f4 [256, 400]
0.114380315 0.09353384 0.05503888 0.16223004 0.27619973 0.011320476 0.0001999568 0.02042211
0.13375717 0.17386885 -0.052375793 -0.1677716 -0.12409993 0.058304373 0.1206209 0.10878231
-0.013746532 -0.048915528 0.13559538 0.23268288 0.08077867 -0.027576568 0.0074466416 0.05310742
0.047968358 -0.084377296 -0.032585807 -0.052343063 -0.042575013 -0.11024366 -0.0014355045 -0.16260909
-0.16771437 -0.12507993 -0.1212157 -0.074188665 -0.11740713 -0.22448175 -0.2065373 -0.24968511
-0.044137478 -0.015709624 -0.026700595 0.021782327 -0.027721196 -0.040170718 0.107301004 0.2380443
0.3025233 0.30308264 0.031570807 0.008974469 0.025407705 -0.028243562 -0.03596553 -0.006639902
-0.0723623 -0.11261655 -0.03864474 -0.0043085963 0.014801745 -0.03870341 0.01950112 0.09930392
0.047587924 0.07237321 -0.060119726 -0.07449181 0.019887602 0.018698914 0.002132917 -0.057634663
-0.012864702 -0.09235307 -0.0429012 0.21155512 -0.004136664 -0.22715373 -0.011922412 0.13366823
0.07645954 -0.08665813 -0.20922223 -0.038362153 0.023914289 -0.09422316 -0.25276062 -0.26397908
-0.16045606 -0.10737352 0.06201673 -0.039942395 0.021652922 0.0075744637 -0.0007967458 -0.13865706
-0.007862706 -0.02214269 -0.05570227 -0.07521575 -0.09322299 -0.065432355 -0.0802374 -0.21206461
-0.14440893 -0.113772474 0.12090411 0.14064088 0.0316546 -0.053084698 -0.029238524 0.2254391
0.11107121 -0.05271767 -0.013400384 -0.10975531 -0.106172815 -0.18226661 -0.19610564 -0.008746429
-0.49803093 -0.12559746 -0.12226815 -0.48393047 -0.15880662 -0.04302382 0.09483217 0.021395557
-0.07094163 -0.15334709 -0.00784781 0.061563004 0.13939223 0.12740275 -0.02932618 -0.0030742525
-0.073897086 -0.22784245 -0.004347751 -0.050808206 0.012793464 0.09876085 0.02087122 0.018308276
0.020389093 -0.19226943 0.070660874 0.24161504 0.2292224 0.24943049 -0.1843023 0.0048007416
-0.11469516 -0.08731794 -0.1802876 -0.18045716 -0.043191146 -0.17660625 -0.11485842 -0.22573102
-0.09096047 -0.039494112 0.06619538 0.094944514 -0.028737487 -0.09453813 -0.05694988 -0.051386118
0.02126653 0.06417505 -0.32831675 -0.25037006 -0.14746845 0.023656312 0.03611239 0.2574082
0.11885704 -0.113361314 -0.12731326 -0.0626797 0.121954836 0.024833119 -0.15302706 0.060302984
-0.020028045 -0.05539921 0.11336114 0.006726258 0.110885955 -0.006391118 -0.115431644 -0.11811185
0.008468326 0.07742959 -0.0028229658 -0.096463665 -0.37928343 -0.4005601 -0.07230387 -0.21608746
-0.13199465 0.025902398 0.12076569 0.08311848 0.025178604 -0.06639382 -0.09841488 -0.11595734
-0.1010046 -0.009110087 -0.032763958 -0.16983005 -0.034384172 0.09258292 0.004608138 0.055046707
0.08293317 0.07751611 0.013681552 -0.12775625 0.054331772 0.002464733 -0.14904405 -0.14478369
-0.3141309 -0.24233733 -0.044830505 0.2315318 0.03027923 0.033195805 -0.028333468 0.21787582
0.2084144 0.037360795 0.019860096 -0.018589929 0.18497512 0.12260764 0.1042352 0.07142345
0.04382379 -0.048127603 0.070770696 -0.012059864 -0.037109364 0.018021017 0.11745236 0.024852984
-0.21640544 -0.21822508 0.009293576 0.060744226 0.045519583 0.005794475 -0.07707455 -0.023320384
00000000: 3a40 ea3d ab8e bf3d 7370 613d a21f 263e
00000010: 0d6a 8d3e 8579 393c 7fab 5139 454c a73c
00000020: a4f7 083e ad0a 323e 0088 56bd 51cc 2bbe
00000030: 1b28 febd 91d0 6e3d 1708 f73d 42c9 de3d
00000040: 2239 61bc a65b 48bd 84d9 0a3e 6c44 6e3e
00000050: 4a6f a53d 41e8 e1bc f502 f43b 2b87 593d
00000060: 787a 443d 01ce acbd b278 05bd ae65 56bd
00000070: 2363 2ebd 6ec7 e1bd 8a27 bcba ff82 26be
00000080: 51bd 2bbe f414 00be f03f f8bd 3af0 97bd
00000090: 2673 f0bd 8bde 65be 847e 53be 74ad 7fbe
000000a0: 80c9 34bd 78b1 80bc 35bb dabc da70 b23c
000000b0: 9017 e3bc 0d8a 24bd a1c0 db3d e3c1 733e
000000c0: 55e4 9a3e a62d 9b3e 6450 013d a709 133c
000000d0: d223 d03c 0b5f e7bc 9750 13bd 8993 d9bb
000000e0: af32 94bd 81a3 e6bd f249 1ebd 202f 8dbb
000000f0: 0583 723c 7887 1ebd d0c0 9f3c db5f cb3d
00000100: 8eeb 423d 6838 943d 1a40 76bd 298f 98bd
00000110: 53eb a23c 772e 993c 69c8 0b3b 5312 6cbd
00000120: 79c6 52bc 9b23 bdbd 2bb9 2fbd e8a1 583e
00000130: da8c 87bb fd9a 68be 3856 43bc 53e0 083e
00000140: d296 9c3d d179 b1bd 5a3e 56be a221 1dbd
00000150: e6e7 c33c 12f8 c0bd d769 81be 4428 87be
00000160: 984e 24be a6e6 dbbd 4105 7e3d a39a 23bd
00000170: 7861 b13c 3533 f83b b5dc 50ba 1efc 0dbe
00000180: 94d2 00bc 9664 b5bc 1028 64bd b70a 9abd
00000190: b2eb bebd 6601 86bd 8253 a4bd 7727 59be
000001a0: efdf 13be 8b01 e9bd 939c f73d 2a04 103e
000001b0: 41a8 013d 576f 59bd a185 efbc 82d9 663e
000001c0: 4d79 e33d 7cee 57bd 498d 5bbc 64c7 e0bd
000001d0: 2271 d9bd 19a4 3abe ebcf 48be 2f4d 0fbc
000001e0: e9fd febe 9f9c 00be b967 fabd bcc5 f7be
000001f0: 349e 22be bf39 30bd 5e37 c23d bc45 af3c
00000200: d849 91bd 0507 1dbe 1a94 00bc 7d29 7c3d
00000210: d6bc 0e3e de75 023e 753d f0bc 6679 49bb
00000220: 5b57 97bd 884f 69be 9477 8ebb 441c 50bd
00000230: ad9b 513c 2143 ca3d 1ffa aa3c 3dfb 953c
00000240: 0707 a73c 47e2 44be a6b6 903d ef69 773e
00000250: 47b9 6a3e b56a 7f3e beb9 3cbe 8a4f 9d3b
00000260: 4ce5 eabd c0d3 b2bd 509d 38be c3c9 38be
00000270: 33e9 30bd 45d8 34be e43a ebbd 0826 67be
00000280: 7c49 babd 94c4 21bd 7291 873d 4572 c23d
00000290: e16a ebbc 359d c1bd 4744 69bd 407a 52bd
000002a0: 2537 ae3c 356e 833d 2219 a8be 8130 80be
000002b0: f801 17be e2ca c13c 96ea 133d 02cb 833e
000002c0: 526b f33d fa29 e8bd 685e 02be 375e 80bd
000002d0: 75c3 f93d d36e cb3c 20b3 1cbe 4300 773d
000002e0: db11 a4bc 48ea 62bd e329 e83d f167 dc3b
000002f0: 2d18 e33d 956c d1bb 6d67 ecbd a0e4 f1bd
00000300: bcbe 0a3c 6893 9e3d 8201 39bb be8e c5bd
00000310: 7031 c2be 3716 cdbe 0d14 94bd 0846 5dbe
00000320: 9b29 07be 4431 d43c 0154 f73d 063a aa3d
00000330: 5c43 ce3c 7cf9 87bd be8d c9bd 0b7b edbd
00000340: 80db cebd 7942 15bc 8033 06bd eee7 2dbe
00000350: 6bd6 0cbd 1d9c bd3d ddff 963b a878 613d
00000360: ded8 a93d c4c0 9e3d 9728 603c 89d2 02be
00000370: fe8a 5e3d 5c87 213b 019f 18be 2d42 14be
00000380: c4d5 a0be 4727 78be 31a0 37bd ac16 6d3e
00000390: 260c f83c 53f8 073d 971b e8bc d71a 5f3e
000003a0: 966a 553e a207 193d a4b1 a23c e849 98bc
000003b0: 1e6a 3d3e b719 fb3d 4479 d53d 7546 923d
000003c0: 9380 333d 7321 45bd 3af0 903d bc96 45bc
000003d0: fdff 17bd d0a0 933c dd8a f03d 7c98 cb3c
000003e0: 6399 5dbe 6576 5fbe 1544 183c f0ce 783d
000003f0: be72 3a3d 94df bd3b 43d9 9dbd 640a bfbc

fc1.bias f4 [256]
-0.008277051 -0.06482155 -0.043261565 -0.1250951 -0.2130515 -0.030383948 -0.067166865 0.56017464
-0.032940347 0.01015675 -0.033082757 -0.039640095 0.23425552 -0.065049455 0.45742428 0.083057284
0.35749486 0.08711663 -0.04997321 0.45462358 -0.0072672227 0.1694451 0.014226378 -0.008358653
0.31202897 -0.022089295 -0.0624741 -0.038294874 -0.27136493 0.13557988 -0.06586241 -0.08467017
-0.24487254 -0.12525079 -0.06889922 0.586658 -0.0013627618 0.14486468 0.25793242 -0.026156602
-0.07334496 -0.08459204 0.12776354 -0.021871386 -0.012852952 -0.10061038 -0.06491649 -0.14502038
-0.32330206 0.16435407 -0.03286572 -0.05397666 0.22847514 0.52776885 0.27150282 -0.03590035
-0.075993925 -0.05797156 -0.09938532 0.23993278 -0.048446618 -0.051342897 -0.020408869 0.5304191
0.30210668 0.018423311 0.327935 0.005027185 0.025698384 -0.04838477 0.0041367714 0.53358716
0.040334567 -0.06749226 -0.008453995 -0.18037632 0.019396078 0.1784944 0.55589855 0.2679003
0.0977165 -0.13061868 0.100297466 -0.029103631 -0.061454467 -0.14899328 -0.024802215 -0.036043618
0.019369025 0.12460791 -0.14013344 0.013961754 0.48106617 0.37141228 -0.038792748 -0.06639395
-0.012783226 -0.12113341 -0.08188845 0.22455072 0.08902557 0.13211252 -0.037170514 0.15395524
0.13262892 -0.06117115 0.14061184 0.31059614 -0.08264109 0.507019 0.0019698609 0.23718043
0.030379629 0.34019053 -0.017833337 0.37905023 -0.2558036 0.022344664 0.57365376 0.021529093
0.0008671421 0.0030606107 -0.11577676 0.21972297 -0.026884276 -0.031001328 -0.030716473 0.11782548
0.027839433 0.14185481 -0.22236003 0.00094807445 0.1071357 0.0019465996 0.046786398 0.19134137
0.26782787 0.012267973 -0.1457041 -0.07580315 0.4575117 0.306076 -0.06085354 -0.085010774
-0.053464744 -0.043061454 -0.065252125 0.11016519 -0.026959771 0.54887366 -0.0778007 -0.007955162
0.023298474 0.31386733 -0.06452359 -0.07268465 0.19071569 0.09295268 -0.012524561 0.047197483
-0.015101783 0.28913063 -0.049003795 0.5359517 -0.10814515 -0.06447287 0.114772566 -0.26116917
-0.025841901 0.564368 0.5504594 0.00023172206 0.0012261865 -0.07140153 0.48015004 0.011547885
-0.07433258 -0.1784073 0.58514047 -0.0006757997 0.23918511 -0.05008657 -0.07082754 -0.07266405
0.060714472 0.5908874 0.03884918 0.46281406 -0.33111176 -0.009573626 -0.0025676088 0.40023527
0.1152639 0.13915431 0.1817782 -0.29553363 -0.045076966 -0.080721155 -0.08869672 -0.2862051
0.17175154 0.52601796 -0.011353306 0.3518457 -0.12635861 0.15635942 0.021263763 0.4785888
0.15023416 0.021015422 0.4140691 0.08477809 0.5879747 0.12944677 -0.01908547 -0.21180691
0.08818793 -0.05321598 0.04800996 0.48801392 0.39790854 -0.03315397 0.30372918 0.43569964
-0.253981 -0.026904672 0.4172668 0.30610305 -0.05140856 -0.065274194 -0.011211185 -0.021371966
0.43901074 0.11433149 0.24553105 0.21771376 0.06146959 -0.01109081 -0.040304814 0.48248348
0.014082926 -0.012993995 -0.038796835 -0.2579258 -0.003282949 0.42506024 0.03961837 -0.433275
-0.023859892 0.1302403 -0.03597117 0.3552602 0.7336986 -0.107832596 -0.079412624 -0.28744474
00000000: 789c 07bc 29c1 84bd 0a33 31bd ee18 00be
00000010: 2c2a 5abe c2e7 f8bc c88e 89bd 9b67 0f3f
00000020: 75ec 06bd 7f68 263c c981 07bd a75d 22bd
00000030: aee0 6f3e a638 85bd 8433 ea3e f019 aa3d
00000040: 9109 b73e 346a b23d b5b0 4cbd 6cc4 e83e
00000050: e221 eebb 0483 2d3e c115 693c bbf2 08bc
00000060: 43c2 9f3e 9cf4 b4bc d8e4 7fbd 16db 1cbd
00000070: 58f0 8abe 74d5 0a3e dfe2 86bd 8e67 adbd
00000080: debf 7abe be41 00be 091b 8dbd 382f 163f
00000090: b39e b2ba 6857 143e b80f 843e 5f46 d6bc
000000a0: e235 96bd 973e adbd 72d4 023e 9f2b b3bc
000000b0: 3095 52bc d10c cebd f0f2 84bd 3980 14be
000000c0: d987 a5be 6f4c 283e 359e 06bd a116 5dbd
000000d0: 63f5 693e dc1b 073f 6b02 8b3e 3f0c 13bd
000000e0: b4a2 9bbd 9673 6dbd 888a cbbd f0b0 753e
000000f0: f66f 46bd ee4c 52bd 8030 a7bc 8cc9 073f
00000100: baad 9a3e 7cec 963c 19e7 a73e 16bb a43b
00000110: 6b85 d23c 1c2f 46bd c18d 873b 2b99 083f
00000120: dc35 253d 6239 8abd a082 0abc 92b4 38be
00000130: 86e4 9e3c 3cc7 363e 5e4f 0e3f 3a2a 893e
00000140: 971f c83d e7c0 05be c268 cd3d bd6a eebc
00000150: aeb7 7bbd b291 18be 042e cbbc 79a2 13bd
00000160: caab 9e3c 6f32 ff3d 247f 0fbe d7bf 643c
00000170: 4e4e f63e c029 be3e 25e5 1ebd 8df9 87bd
00000180: bc70 51bc cb14 f8bd 22b5 a7bd a0f0 653e
00000190: 0a53 b63d 8148 073e 1c40 18bd 71a6 1d3e
000001a0: e0cf 073e 9a8e 7abd 8dfc 0f3e 7506 9f3e
000001b0: bb3f a9bd ffcb 013f c818 013b 6ddf 723e
000001c0: b3de f83c 742d ae3e 3817 92bc df12 c23e
000001d0: b1f8 82be 280c b73c f9da 123f c85d b03c
000001e0: ec50 633a 8794 483b 5e1c edbd 0fff 603e
000001f0: 6a3c dcbc 7ff6 fdbc 1da1 fbbc 7c4e f13d
00000200: 860f e43c 6342 113e 59b2 63be 3388 783a
00000210: f669 db3d 0b25 ff3a 18a3 3f3d feee 433e
00000220: bc20 893e 9cff 483c 7533 15be af3e 9bbd
00000230: f93e ea3e feb5 9c3e 9041 79bd 211a aebd
00000240: d9fd 5abd 3561 30bd e8a2 85bd 4a9e e13d
00000250: bdda dcbc fc82 0c3f f955 9fbd 5e56 02bc
00000260: 71dc be3c 38b3 a03e f224 84bd b1db 94bd
00000270: f94a 433e fa5d be3d d133 4dbc 2652 413d
00000280: 786d 77bc ee08 943e 34b8 48bd 2134 093f
00000290: 347b ddbd 5a0a 84bd e10d eb3d f7b7 85be
000002a0: 65b2 d3bc 6c7a 103f e8ea 0c3f 6bfa 7239
000002b0: feb7 a03a f73a 92bd 3ad6 f53e 5733 3d3c
000002c0: ae3b 98bd 67b0 36be c4cb 153f 2628 31ba
000002d0: f1ec 743e 9327 4dbd 070e 91bd e4d0 94bd
000002e0: bdaf 783d 6644 173f 5120 1f3d f7f5 ec3e
000002f0: 7b87 a9be b3da 1cbc 5445 28bb a3eb cc3e
00000300: 7b0f ec3d 787e 0e3e 1124 3a3e 2f50 97be
00000310: a0a2 38bd 2251 a5bd a0a6 b5bd 7a89 92be
00000320: a3df 2f3e 1da9 063f 3703 3abc 1f25 b43e
00000330: 2764 01be af1c 203e 5831 ae3c 9709 f53e
00000340: fcd6 193e 8928 ac3c dd00 d43e 23a0 ad3d
00000350: 8385 163f b28d 043e 2259 9cbc e9e3 58be
00000360: e09b b43d 00f9 59bd 18a6 443d f6dc f93e
00000370: abba cb3e 75cc 07bd 6482 9b3e 0614 df3e
00000380: cc09 82be 3067 dcbc fea3 d53e 8ab9 9c3e
00000390: c891 52bd 7aae 85bd 1eaf 37bc 4314 afbc
000003a0: 04c6 e03e a126 ea3d 7e6c 7b3e 5bf0 5e3e
000003b0: 89c7 7b3d 3bb6 35bc a916 25bd 1308 f73e
000003c0: 13bc 663c c4e4 54bc 6ee9 1ebd da0e 84be
000003d0: bf26 57bb 7fa1 d93e df46 223d 39d6 ddbe
000003e0: d275 c3bc b75d 053e 8156 13bd aae4 b53e
000003f0: acd3 3b3f 56d7 dcbd 16a3 a2bd f52b 93be

fc2.weight f4 [10, 256]
0.012836733 -0.05256648 -0.04303315 0.065677114 -0.080196396 -0.034312658 -0.0447806 0.05262156
0.084801055 -0.019933682 -0.0086333435 -0.0237409 -0.15996589 -0.04492528 0.14545186 0.06499455
0.16800217 -0.018751755 0.026128562 -0.35741875 -0.027585503 -0.29867926 -0.025070217 0.027273785
0.15555334 0.011902069 -0.046795722 -0.029246517 0.17770557 0.0054542376 0.012609709 -0.043908246
-0.05609526 -0.068871975 -0.06419222 -0.37249693 -0.03452019 -0.10531171 0.11345201 -0.0138835
-0.16127343 0.004830466 -0.07767178 -0.012092596 0.0019625998 0.015690254 -0.1957934 -0.11161359
0.105339065 0.10699574 0.06395112 0.0016358735 0.09435344 0.043752685 0.046372466 0.016025107
0.032298487 -0.040162 -0.027862677 -0.11446329 -0.114306465 0.018688384 -0.050787665 0.011176237
-0.06110442 -0.023567826 0.24643776 -0.007212055 0.0048484486 -0.048685342 0.023901856 -0.15461503
-0.14207853 0.020620972 -0.02808952 0.12581913 -0.0014146869 0.055235837 0.062202517 -0.12267282
-0.19946674 -0.15734759 0.18122903 -0.052742336 0.020558577 0.039012916 0.0043662046 -0.0011917724
0.2283258 -0.18242526 0.08203204 -0.16689458 -0.12705013 -0.01777512 -0.05887474 0.014482312
-0.24617304 -0.08572033 0.042201653 -0.25024667 0.16120689 0.08679009 0.024743756 0.14257608
0.07586564 -0.017977443 -0.0976482 0.15918152 -0.03646107 -0.3411235 0.017011693 -0.07938364
-0.023812614 -0.2959769 -0.021978265 -0.25400227 0.20129696 0.036670275 -0.28290218 -0.024496417
-0.010944018 -0.048285972 0.039510004 0.13243861 0.024243345 0.03421608 -0.038058236 0.06590549
-0.015805585 -0.29868996 0.03100488 -0.07774481 0.057047516 0.06445304 -0.13732782 -0.18432027
-0.016703837 0.14181228 -0.092224844 0.11278278 0.26855505 0.10368589 0.018214853 0.07859626
0.07713236 0.0033387756 -0.03192977 0.10583661 -0.031432953 0.089064874 -0.10183076 -0.04236559
0.014309538 -0.40885326 0.019201621 -0.052677203 -0.31240746 0.030191215 0.006738422 -0.13396242
0.002933874 0.03592134 0.020522531 -0.19183679 -0.008038245 -0.0775995 0.029812591 0.018782375
-0.003915985 -0.17505607 0.11603073 0.049522124 0.027848754 0.0332735 -0.2467618 0.08549755
0.016268108 0.12563592 0.11966123 0.076156735 -0.021347938 -0.04256392 -0.046512794 -0.03182167
0.08123408 -0.15864718 0.13397732 -0.18579727 0.064787015 -0.045846727 0.046464965 -0.22480835
0.07108713 -0.13661739 -0.011617303 -0.109981276 -0.049873192 -0.05446542 -0.08108646 -0.00037015317
0.09314227 -0.18546161 0.055741094 -0.11185323 0.07239783 0.14493378 0.005131255 -0.22527017
0.08503423 0.13149098 -0.021604512 -0.3043637 -0.33384252 -0.16216643 0.04849072 0.11845571
0.039364778 -0.08136263 0.016130676 -0.045264028 -0.1903387 0.034123193 -0.031809993 0.116084196
0.05457841 -0.023269037 -0.0028350102 0.08815269 0.002581168 -0.00756554 -0.061651483 0.06357342
-0.41121525 0.09956267 -0.11518665 0.19575387 0.1139321 -0.022968557 0.04513539 -0.077079035
0.020126572 0.073965006 0.009483025 0.04054205 -0.063927755 -0.20649715 -0.075475305 0.19176203
0.050171852 0.07968288 -0.022950776 0.07860915 -0.23725027 0.14573316 0.0059878454 0.06827935
00000000: 2951 523c f34f 57bd 8743 30bd b981 863d
00000010: 023e a4bd 6e8b 0cbd dd6b 37bd b489 573d
00000020: 2dac ad3d f64b a3bc de72 0dbc 477c c2bc
00000030: 19ce 23be 9203 38bd 55f1 143e dd1b 853d
00000040: c308 2c3e 489d 99bc 910b d63c 97ff b6be
00000050: fefa e1bc 7dec 98be 0e60 cdbc 466d df3c
00000060: 6049 1f3e e500 433c dfac 3fbd 6496 efbc
00000070: 73f8 353e 76b9 b23b f498 4e3c 22d9 33bd
00000080: 25c4 65bd c00c 8dbd 3677 83bd ebb7 bebe
00000090: 0b65 0dbd aaad d7bd 8759 e83d 9f77 63bc
000000a0: dd24 25be e348 9e3b 6212 9fbd 0620 46bc
000000b0: f69e 003b d988 803c 117e 48be aa95 e4bd
000000c0: 02bc d73d 9520 db3d cef8 823d ce6a d63a
000000d0: 603c c13d 0436 333d 0ef1 3d3d 1647 833c
000000e0: 6b4b 043d e980 24bd 4540 e4bc bb6b eabd
000000f0: 8219 eabd 6218 993c ba06 50bd 891c 373c
00000100: a148 7abd 5011 c1bc 2e5a 7c3e 1a53 ecbb
00000110: bcdf 9e3b 486a 47bd d3cd c33c 6753 1ebe
00000120: 097d 11be 50ed a83c fe1b e6bc bbd6 003e
00000130: 046d b9ba f93e 623d 11c8 7e3d e33b fbbd
00000140: 0241 4cbe ba1f 21be 1a94 393e 5908 58bd
00000150: 766a a83c 02cc 1f3d 6112 8f3b 3f35 9cba
00000160: 3dce 693e b0cd 3abe 6a00 a83d 6ae6 2abe
00000170: 6e19 02be 219d 91bc a426 71bd 3847 6d3c
00000180: c914 7cbe 248e afbd a4db 2c3d 5520 80be
00000190: 6b13 253e 01bf b13d 6bb3 ca3c 77ff 113e
000001a0: 725f 9b3d 6e45 93bc c8fb c7bd 7b00 233e
000001b0: 3458 15bd bda7 aebe 1b5c 8b3c e493 a2bd
000001c0: ac12 c3bc 498a 97be c30b b4bc 960c 82be
000001d0: ca20 4e3e 9233 163d 8ed8 90be b6ac c8bc
000001e0: 8a4e 33bc 83c7 45bd 3ed5 213d fd9d 073e
000001f0: fb99 c63c 2926 0c3d f4e2 1bbd 75f9 863d
00000200: b77a 81bc e4ed 98be f2fd fd3c ac38 9fbd
00000210: a8aa 693d f5ff 833d aa9f 0cbe 74be 3cbe
00000220: 7cd6 88bc 3d37 113e 61e0 bcbd a8fa e63d
00000230: 0c80 893e 4559 d43d 5137 953c 13f7 a03d
00000240: 92f7 9d3d 5ccf 5a3b cac8 02bd ddc0 d83d
00000250: d7bf 00bd a567 b63d a58c d0bd 8a87 2dbd
00000260: 8d72 6a3c 3755 d1be b84c 9d3c 0dc4 57bd
00000270: dff3 9fbe 9153 f73c fbcd dc3b 722d 09be
00000280: 3d46 403b 4122 133d de1e a83c dd70 44be
00000290: d8b2 03bc 7dec 9ebd 8939 f43c 7fdd 993c
000002a0: aa51 80bb e641 33be 85a1 ed3d b6d7 4a3d
000002b0: 1223 e43c cb49 083d 20af 7cbe 5719 af3d
000002c0: b244 853c b4a6 003e f210 f53d 10f8 9b3d
000002d0: dfe1 aebc 8157 2ebd 3384 3ebd 7057 02bd
000002e0: 0e5e a63d 6874 22be 5a31 093e a441 3ebe
000002f0: 0eaf 843d c7c9 3bbd 0c52 3e3d 2934 66be
00000300: 2196 913d 6ee5 0bbe 8056 3ebc dd3d e1bd
00000310: d547 4cbd 2217 5fbd a810 a6bd 1e11 c2b9
00000320: 60c1 be3d a6e9 3dbe c650 643d 4e13 e5bd
00000330: 5045 943d 8569 143e 1624 a83b 39ad 66be
00000340: 6d26 ae3d 92a5 063e f2fb b0bc 8fd5 9bbe
00000350: 68ed aabe f50e 26be 359e 463d e898 f23d
00000360: f63c 213d 73a1 a6bd 7b24 843c c666 39bd
00000370: 26e8 42be c3c4 0b3d 324b 02bd 8dbd ed3d
00000380: 9c8d 5f3d b59e bebc 94cb 39bb 6689 b43d
00000390: d028 293b 59e8 f7bb 4486 7cbd c832 823d
000003a0: ce8a d2be 83e7 cb3d fae6 ebbd b473 483e
000003b0: 3c55 e93d 8e28 bcbc e3df 383d 9ddb 9dbd
000003c0: 7be0 a43c f77a 973d b15e 1b3c 6c0f 263d
000003d0: 8eec 82bd fd73 53be cc92 9abd 445d 443e
000003e0: 0081 4d3d c730 a33d 4403 bcbc d6fd a03d
000003f0: bcf1 72be 133b 153e b035 c43b 0bd6 8b3d

fc2.bias f4 [10]
-0.4733077 -0.16489312 -0.13160428 0.14609303 0.38052112 0.020131228 0.19370648 -0.14047348
0.09628396 0.13128981
00000000: 6355 f2be bed9 28be 46c3 06be 6999 153e
00000010: aad3 c23e 3fea a43c fe5a 463e 48d8 0fbe
00000020: 8630 c53d d670 063e
